checkpoints/quick_test_final.pth (torch, 708469 bytes, 90 tensors)

pts_linears.0.weight f4 [64, 63]
0	0x3dc544e4	0.096322805
1	0x3dd62968	0.10457116
2	0xbcf1ca9c	-0.029515557
3	0x3ded0606	0.115734145
4	0xbce222bc	-0.027604453
5	0x3cd04468	0.025423244
6	0xbd7b3d86	-0.06133797
7	0x3d97886a	0.07399066
8	0x3de37582	0.11106397
9	0xbdbd4b22	-0.09242846
10	0x3de045f4	0.109508425
11	0x3cc12a88	0.02357985
12	0x3dbea156	0.09308116
13	0x3c8bc6f8	0.01706265
14	0x3d78d4fc	0.060749993
15	0xbc91b8f8	-0.017788395
16	0x3dc6e828	0.09712249
17	0x3c988d88	0.018622175
18	0xbd70e95c	-0.0588163
19	0x3d038a24	0.032114163
20	0xbd6dc312	-0.05804736
21	0xbc7212d0	-0.014774993
22	0xbd5198d4	-0.05117114
23	0x3dab2a5c	0.08357689
24	0xbdcbad1e	-0.09945129
25	0xbd6de73a	-0.058081843
26	0xbd11b802	-0.035575874
27	0xbd9b2480	-0.07575321
28	0x3c42d320	0.011891156
29	0xbdfed83c	-0.12443587
30	0x3de9060a	0.11378105
31	0xbddb2ed7	-0.10702293
32	0x3dc7338e	0.0972663
33	0x3cabc2a8	0.020966843
34	0xbd27901e	-0.040908925
35	0x3d9f721e	0.07785438
36	0x3ca0da50	0.01963535
37	0x3dd07946	0.10179381
38	0x3c61a810	0.013772979
39	0xbd22bf5e	-0.039733283
40	0x3d0aa74c	0.033850953
41	0xbd0bf104	-0.034165397
42	0x3d592eb8	0.05302307
43	0x3de65e8c	0.11248502
44	0x3d952730	0.07282865
45	0xbd619a0e	-0.05507856
46	0x3d94f2b0	0.072728515
47	0x3cb8ab38	0.022542581
48	0x3d830894	0.063981205
49	0xbd9d444c	-0.07679042
50	0xbdff6b7e	-0.124716744
51	0xbd476160	-0.04867685
52	0xbdc5e8fd	-0.096635796
53	0x3dd3b7f0	0.10337818
54	0x3d14a34c	0.036288545
55	0x3d55c0fc	0.052185997
56	0x3d2334b0	0.03984517
57	0xbb0fa260	-0.0021916851
58	0x3dc9ee78	0.098599374
59	0xbdb75452	-0.0895163
60	0x3c01f810	0.007932678
61	0xbdb01c90	-0.08599198
62	0x3d1f1fd0	0.0388487
63	0xbd31b7b6	-0.04338809
64	0x3d1e2018	0.038604826
65	0xbcd70738	-0.02624856
66	0x3dd600b6	0.10449354
67	0xbd98ee61	-0.07467342
68	0xbd99e285	-0.07513908
69	0xbd99e4e6	-0.07514362
70	0x3de813de	0.11331914
71	0x3d2bf930	0.04198569
72	0x3df84896	0.1212322
73	0xbdd4f0dd	-0.103975035
74	0xbdffed77	-0.12496465
75	0xbdc9de51	-0.098568566
76	0xbdad91dc	-0.08475086
77	0x3d51051c	0.051030263
78	0x3d38c8bc	0.04511331
79	0x3dd665f2	0.10468663
80	0xbd854000	-0.06506348
81	0xbdafe5d8	-0.08588761
82	0x3d88e6da	0.066846564
83	0xbd5096b6	-0.05092498
84	0x3d9c99cc	0.07646522
85	0xbcf4eab4	-0.029897071
86	0x3d9399f8	0.072071016
87	0xbdc879e8	-0.09788877
88	0xbd82362c	-0.06357989
89	0x3d1d54ac	0.038410828
90	0x3cda3150	0.026634842
91	0xbd039222	-0.032121785
92	0x3d99ccd2	0.075097695
93	0x3daf682c	0.08564791
94	0xbdbb1ca8	-0.09136325
95	0xbd89c02c	-0.06726107
96	0x3dec4334	0.115362555
97	0xbd2e2196	-0.0425125
98	0xbd36f282	-0.044664867
99	0xbdf9a992	-0.12190546
100	0xbd93c334	-0.072149664
101	0x3d00e918	0.031472296
102	0xbc883ac0	-0.016629577
103	0xbdbb4bbb	-0.09145304
104	0x3b41ad40	0.0029552728
105	0xbdb04052	-0.08606018
106	0xbddae80f	-0.10688793
107	0xbd8e1584	-0.069376975
108	0xbde1d354	-0.11026636
109	0xbda44b26	-0.08022146
110	0x3e00f620	0.12593889
111	0x3cc2efd8	0.023796007
112	0x3d1f0668	0.03882447
113	0xbdf0a79a	-0.117507175
114	0xbda97696	-0.082745716
115	0xbd2bc4f8	-0.04193589
116	0x3ca163d0	0.019700915
117	0xbde30a64	-0.11085966
118	0xbd5e59d8	-0.0542849
119	0xbd9a7880	-0.07542515
120	0x39b70e00	0.0003491491
121	0xbd4005de	-0.046880595
122	0xbc0f0a28	-0.008730449
123	0xbdaed834	-0.08537331
124	0xbdb11b33	-0.08647766
125	0xbd968812	-0.07350172
126	0xbd30a448	-0.04312542
127	0xbdcba739	-0.099440046
128	0x3dd8585a	0.10563727
129	0xbcccd570	-0.025004119
130	0x3dde00b6	0.10839979
131	0x3d20ca88	0.03925565
132	0xbdda7e65	-0.10668639
133	0x3db28fc0	0.087188244
134	0xbd0dfce0	-0.03466499
135	0xbd45d080	-0.048294544
136	0xbdd62d8a	-0.10457905
137	0xbe00422f	-0.12525247
138	0x3d13a58c	0.03604655
139	0xbce17470	-0.027521342
140	0x3d48e8c4	0.049050108
141	0xbdd3c02b	-0.103393875
142	0x3dbf9078	0.09353727
143	0xbdbd673e	-0.092482075
144	0xbcb2371c	-0.021754794
145	0x3cd792c8	0.026315108
146	0x3d85348a	0.06504162
147	0x3dd04e24	0.10171154
148	0x3deb0c92	0.11477007
149	0xbdcc97be	-0.0998988
150	0x3d01df4c	0.031707093
151	0xbd5df726	-0.054190777
152	0xbc623430	-0.013806388
153	0xbdc120d2	-0.09430088
154	0x3deb05ee	0.114757404
155	0xbdbd606c	-0.09246907
156	0x3d89e6b0	0.06733453
157	0x3d355c08	0.04427722
158	0x3d27b154	0.040940598
159	0xbd8b7fe3	-0.06811502
160	0x3dea87f4	0.11451712
161	0x3ce2cda8	0.027685955
162	0x3c84c4d0	0.016207129
163	0xbde36279	-0.111027665
164	0x3d58a17c	0.05288838
165	0xbc9ad5e4	-0.01890082
166	0xbd6c69f4	-0.057718232
167	0x3ddda0ec	0.10821709
168	0x3ce61ab8	0.028088912
169	0xbd8ec22a	-0.069706276
170	0xbd82988a	-0.06376751
171	0xbbc52760	-0.0060166568
172	0x3d90120a	0.07034691
173	0xbd03de1a	-0.032194234
174	0xbd9338cc	-0.071885675
175	0xbd30b780	-0.04314375
176	0xbdc0c357	-0.09412258
177	0x3d380a10	0.04493147
178	0x3dc7b884	0.097519904
179	0xbdf2e9f9	-0.11861033
180	0x3cefb468	0.02926083
181	0x3d854afe	0.06508444
182	0x3cbb2630	0.022845358
183	0xbd37c6f8	-0.044867486
184	0x3d86ac68	0.06575853
185	0x3d87984a	0.06620844
186	0x3d40f6d8	0.04711041
187	0xbcb55c78	-0.02213882
188	0xbd08a668	-0.033361822
189	0x3c5cd430	0.013478324
190	0xbcb652e4	-0.022256322
191	0xbd19c85e	-0.0375446
192	0x3da4ee38	0.08053249
193	0x3dddbed8	0.10827416
194	0xbc4c5970	-0.012472495
195	0xbce71534	-0.028208353
196	0x3af0f880	0.0018384606
197	0xbbf67f90	-0.007522531
198	0x3cf82098	0.03028898
199	0x3d109d24	0.03530611
200	0xbdea5a10	-0.11442959
201	0xbd3e70e6	-0.046494387
202	0x3dd94a16	0.10609834
203	0x3d490764	0.049079314
204	0xbbcd55f0	-0.006266348
205	0xbd9b9062	-0.07595898
206	0xbd9ddc38	-0.07708019
207	0xbde7210e	-0.112856016
208	0xbd28364c	-0.041067407
209	0x3d2e457c	0.042546734
210	0x3da48582	0.08033277
211	0x3d6e41fc	0.058168396
212	0xbde4141c	-0.11136648
213	0xbd9b2a72	-0.07576455
214	0xbca2e1bc	-0.01988303
215	0x3df99962	0.121874586
216	0x3c954ce0	0.018225133
217	0xbd05a426	-0.032627247
218	0x3d557f28	0.05212322
219	0xbd448d90	-0.047986567
220	0xbda701e0	-0.081546545
221	0x3dbc5408	0.09195715
222	0xbd6aa5d0	-0.057287037
223	0xbccee698	-0.02525644
224	0xbe005770	-0.12533355
225	0x3dacb00e	0.08432017
226	0x3dc37cdc	0.095452994
227	0x3d3c1294	0.045916155
228	0xbdb3e9ce	-0.08784829
229	0xbdfea768	-0.12434274
230	0xbdd18fbc	-0.10232493
231	0x3dc0688a	0.09394939
232	0x3d77c1e4	0.060487643
233	0x3dd920ce	0.1060196
234	0x3d872bbe	0.0660014
235	0x3d029b8c	0.031886622
236	0xbaa1b640	-0.001233764
237	0xbdc43a86	-0.09581475
238	0xbddd114c	-0.10794315
239	0xbdf15797	-0.117842846
240	0x3d53400c	0.05157475
241	0xbd7d5ce0	-0.06185615
242	0xbccfb638	-0.025355443
243	0xbd947e78	-0.072506845
244	0xbcbc1270	-0.02295801
245	0xbdb59b2a	-0.08867486
246	0xbda898c5	-0.082322635
247	0x3d2b2db4	0.041791633
248	0xbd195e12	-0.037443228
249	0x3d9f4a08	0.07777792
250	0xbd258d74	-0.040418103
251	0xbdbd471c	-0.09242079
252	0xbcb61a0c	-0.022229217
253	0xbd7a2716	-0.06107243
254	0xbd1de160	-0.038545012
255	0xbdf5a331	-0.11994017

pts_linears.0.bias f4 [64]
0	0x3dd8af1e	0.10580276
1	0xbdc1ac55	-0.09456698
2	0xbd133dac	-0.035947487
3	0x3cf11078	0.029426798
4	0x3cb32640	0.021868825
5	0x3ae31780	0.0017325729
6	0x3dddfba4	0.10839012
7	0xbd061a1a	-0.032739736
8	0x3d051d94	0.03249891
9	0x3d88be3e	0.06676911
10	0xbcc81d5c	-0.024428062
11	0x3da899e6	0.08232479
12	0x3da883e8	0.08228284
13	0x3d65cbb8	0.056102484
14	0xbcfbcc4c	-0.030737065
15	0x3de01f34	0.109434515
16	0xbd951786	-0.07279877
17	0x3d1f7e18	0.03893861
18	0x3ccf3c10	0.025297195
19	0x3db61ec6	0.08892588
20	0xbdd37e36	-0.10326807
21	0x3cb3ee68	0.021964267
22	0xbd9497e9	-0.07255537
23	0x3d88c2c2	0.06677772
24	0x3d313514	0.04326351
25	0xbdc8b679	-0.09800429
26	0xbc013b58	-0.007887684
27	0x3d105b30	0.035243213
28	0x3d5bd4c8	0.05366972
29	0x3de58c2e	0.11208378
30	0x3d67c0b0	0.056580245
31	0x3cc4d4b8	0.024027213
32	0x3d89a380	0.06720638
33	0xbdf42757	-0.11921566
34	0x3dac081a	0.08399983
35	0xbc72b210	-0.014812961
36	0x3d920834	0.07130471
37	0x3d13c6e4	0.03607835
38	0xbbd9b620	-0.0066440254
39	0x3db5a026	0.088684365
40	0xbd966ab4	-0.07344571
41	0x3d1186b4	0.035528854
42	0x3d6238fc	0.055230126
43	0xbd37a6f0	-0.04483694
44	0x3d3af268	0.045641333
45	0xbdff3979	-0.12462134
46	0xbd8251d8	-0.06363267
47	0x3d7ae7a8	0.06125608
48	0x3d84fd94	0.06493679
49	0xbdecd6e1	-0.115644224
50	0x3d32966c	0.043600485
51	0x3c4217b0	0.011846468
52	0x3dfbde58	0.12298268
53	0xbdfbac25	-0.12288693
54	0xbcf5fc08	-0.030027404
55	0xbd9220f0	-0.071351886
56	0xbd9d007c	-0.07666108
57	0xbca891a0	-0.020577252
58	0xbded24b5	-0.11579267
59	0x3dca2638	0.09870571
60	0xbd3693f8	-0.044574708
61	0x3d34d1a8	0.044145256
62	0xbd97d430	-0.074135184
63	0x3a321600	0.00067934394

pts_linears.1.weight f4 [64, 64]
0	0xbdb55be0	-0.088554144
1	0x3dce0cc2	0.10061027
2	0x3dd7e78a	0.105422094
3	0x3dc98bda	0.09841128
4	0xbd333cec	-0.04375927
5	0x3d9f54c2	0.07779838
6	0xbdd5e380	-0.10443783
7	0x3d6aed24	0.05735506
8	0xbc7ccac0	-0.015429199
9	0xbdd423f8	-0.10358423
10	0xbdcd73fe	-0.100318894
11	0xbdef8fd6	-0.116973564
12	0x3cbfe378	0.023423895
13	0xbd392f20	-0.045210958
14	0xbd6bcefc	-0.057570443
15	0x3df3b692	0.11900057
16	0xbd1bfe7c	-0.038084492
17	0x3d2cb23c	0.042162165
18	0xbcb44488	-0.022005334
19	0x3d9a6364	0.075384885
20	0x3d18c9f0	0.037301958
21	0x3da21d4c	0.07915744
22	0x3d05b154	0.032639816
23	0xbce06da8	-0.027396038
24	0x3de242ae	0.110478744
25	0xbc120120	-0.008911401
26	0xbd9940b2	-0.07483043
27	0x3d1f5494	0.03889902
28	0xbc788450	-0.0151682645
29	0xbdbddb8c	-0.09270391
30	0x3c85f448	0.016351834
31	0xbcedecf0	-0.029043645
32	0xbd4be504	-0.049778953
33	0xbd745c38	-0.05965826
34	0xbd59e308	-0.05319503
35	0xbd4f5740	-0.050620317
36	0x3c493bf0	0.012282357
37	0x3df7503e	0.12075852
38	0xbd960cf4	-0.07326689
39	0xbd6edbb0	-0.05831498
40	0xbdab9bda	-0.08379336
41	0xbb9b6ce0	-0.0047432035
42	0x3c0f97e0	0.008764237
43	0xbdafb77a	-0.08579917
44	0x3d69ddb4	0.0570962
45	0xbde5991a	-0.112108424
46	0x3decf1aa	0.11569531
47	0x3cc0b470	0.02352354
48	0xbc4e6890	-0.012598172
49	0xbd375464	-0.044758216
50	0x3d65e350	0.056124985
51	0x3dbaf09c	0.09127924
52	0xbda77256	-0.08176105
53	0xbd005634	-0.03133221
54	0x3dbc74b6	0.09201948
55	0xbcbfe798	-0.023425862
56	0xbdbc80cc	-0.092042536
57	0xbd248a10	-0.04017073
58	0x3b8d7d00	0.0043178797
59	0xbcbf2ac8	-0.02333583
60	0xbdaf6f8e	-0.08566199
61	0xbda061ca	-0.07831152
62	0x3d0a7064	0.03379859
63	0x3dafa6e0	0.08576751
64	0x3de8e37c	0.11371514
65	0xbc677bf0	-0.01412867
66	0x3d44fe60	0.048094153
67	0xbdcb5212	-0.09927763
68	0x3d8869fa	0.066608384
69	0x3df49f04	0.11944392
70	0x3d854f8e	0.065093145
71	0xbd4a6f54	-0.049422577
72	0x3dd0b8c0	0.10191488
73	0xbdf273ae	-0.118384704
74	0xbc75c0d0	-0.014999583
75	0xbcfdb8f0	-0.030971974
76	0xbdff59f6	-0.124683306
77	0xbd920ab4	-0.07130948
78	0xbdba849a	-0.09107323
79	0x3d099c58	0.033596367
80	0xbc2a5a80	-0.010397553
81	0x3d6b25e8	0.057409197
82	0xbce65a78	-0.02811931
83	0x3dd32b54	0.103109986
84	0x3c67f920	0.014158517
85	0x3dd43588	0.10361773
86	0x3dcfe264	0.101506025
87	0xbdd919ec	-0.10600647
88	0xbdabec12	-0.08394636
89	0x3d9a3216	0.075290844
90	0x3df1dc92	0.118096486
91	0xbdda7ff2	-0.10668935
92	0x3aefcb80	0.0018294901
93	0xbd44d814	-0.04805763
94	0x3df103b6	0.11768286
95	0x3dd4aa50	0.10384047
96	0x3dba5146	0.09097533
97	0x3d89c3c8	0.067267954
98	0xbc401ac0	-0.011725128
99	0x3dec388e	0.115342245
100	0xbd6f9728	-0.058493763
101	0x3bca7100	0.0061780214
102	0xbd06b748	-0.032889634
103	0xbdbac0e4	-0.09118822
104	0xbd72a144	-0.059235826
105	0x3cf84768	0.030307487
106	0xbc36b990	-0.01115264
107	0xbda9965e	-0.082806334
108	0xbc822eb8	-0.015891418
109	0x3cb0d9d8	0.021588251
110	0xbdb31c5a	-0.08745642
111	0x3d9a9b8a	0.07549198
112	0xbdd9a5ea	-0.10627349
113	0x3a9cc080	0.0011959225
114	0xbdd169f4	-0.10225287
115	0xbde6d962	-0.11271931
116	0xbc7e67e0	-0.015527695
117	0x3de856d8	0.11344689
118	0x3df20204	0.11816791
119	0x3d380468	0.044926077
120	0x3dc66ce2	0.096887365
121	0xbd8bf12c	-0.06833109
122	0x3d90204e	0.07037412
123	0x3d9c33ca	0.076270655
124	0xbdf4a8c0	-0.11946249
125	0xbdc42e4a	-0.095791414
126	0x3d5d3200	0.05400276
127	0x3c3d3f60	0.011550754
128	0xbdad4802	-0.08461
129	0xbdca03f2	-0.09864034
130	0x3db904c8	0.09034115
131	0x3c5fb9f0	0.013655171
132	0xb9910a00	-0.00027664006
133	0xbdf77aa2	-0.12083937
134	0x3de09cd4	0.109674126
135	0xbda93b38	-0.08263248
136	0x3d64240c	0.05569844
137	0xbc764230	-0.015030429
138	0x3b8578a0	0.0040732175
139	0x3d7b65b4	0.06137629
140	0xbd08642c	-0.033298656
141	0xbd0fa3b8	-0.035068244
142	0x3dcc143e	0.099647984
143	0xbdc42af0	-0.09578502
144	0x3d63d82c	0.05562608
145	0xbd0421d8	-0.03225884
146	0xbd2b134c	-0.04176645
147	0x3dab5eec	0.08367714
148	0x3cace078	0.021103129
149	0xbdee5700	-0.11637688
150	0x3de4c47c	0.11170289
151	0xbd7e0e50	-0.06202537
152	0x3ddd4eec	0.10806069
153	0xbd20b030	-0.039230525
154	0x3df99c28	0.121879876
155	0x3d170a74	0.036875203
156	0xbbc5de80	-0.006038487
157	0x3d437284	0.047716632
158	0xbb7ebf40	-0.0038871318
159	0xbd7df194	-0.061997965
160	0x3d8c08ca	0.06837614
161	0x3da60bf2	0.08107747
162	0xbc804910	-0.015659839
163	0x3df0cc74	0.11757746
164	0x3c020f60	0.007938236
165	0xbd876302	-0.06610681
166	0xbd8b81cc	-0.06811866
167	0x3dac3e88	0.084103644
168	0xbd4f67a0	-0.050635934
169	0x3da1b104	0.07895091
170	0xbdf8ad40	-0.1214242
171	0x3b8d1860	0.0043058842
172	0xbdb0e1d0	-0.0863682
173	0x3d359e4c	0.044340417
174	0x3dcfe742	0.10151531
175	0x3d497a64	0.049188986
176	0xbd300a0c	-0.04297833
177	0xbdf02806	-0.11726384
178	0xbd7295f0	-0.059225023
179	0xbd96fe3c	-0.0737271
180	0x3df47578	0.11936468
181	0xbd89a44a	-0.06720789
182	0x3d45f770	0.048331678
183	0x3dcd8210	0.10034573
184	0x3d3895cc	0.045064732
185	0xbde0a436	-0.10968821
186	0xbc68a4f0	-0.01419948
187	0xbd17f5ec	-0.037099764
188	0x3da4f1a4	0.08053902
189	0xbc401c50	-0.0117255
190	0xbbd80aa0	-0.0065930635
191	0x3de3baf0	0.1111964
192	0x3cf3ac50	0.029745251
193	0x3d6d5704	0.057944313
194	0xbd24d148	-0.04023865
195	0x3da76ad6	0.08174674
196	0x3c933b58	0.017972633
197	0xbccdb1c0	-0.025109172
198	0x3cc556a0	0.024089158
199	0xbdc98252	-0.0983931
200	0x3b969c20	0.0045962483
201	0x3d6acf54	0.05732663
202	0xbdefb6fc	-0.117048234
203	0xbd87fb6a	-0.0663975
204	0x3da063b6	0.07831518
205	0x3b39c740	0.0028347522
206	0xbb8b84e0	-0.0042577833
207	0x3c50fef0	0.012756094
208	0xbd65cbb0	-0.056102455
209	0x3dd3b136	0.10336535
210	0xbc4b1090	-0.0123940855
211	0xbd3a6c9c	-0.045513734
212	0x3d86c17a	0.065798715
213	0xbdd514c0	-0.104043484
214	0xbcbce160	-0.023056686
215	0x3c4e6a20	0.012598544
216	0xbd1ee534	-0.038792804
217	0x3d8b5442	0.0680318
218	0xbdda9fb0	-0.10674989
219	0xbd139b38	-0.0360367
220	0xbd573148	-0.052537233
221	0x3dece2a2	0.11566664
222	0x3d4c54e4	0.049885646
223	0xbdbef76c	-0.09324536
224	0x3d466ee0	0.048445582
225	0xbb2dba80	-0.0026508868
226	0x3dea595e	0.11442827
227	0x3d8d46fe	0.06898306
228	0xbd9582d6	-0.073003456
229	0x3de43220	0.11142373
230	0xbcb725e0	-0.022356927
231	0xbce92ca8	-0.028463677
232	0x3d191a28	0.03737846
233	0x3dfe56ba	0.124188855
234	0x3d1a7c38	0.03771612
235	0xbdf7014c	-0.12060794
236	0xbd237178	-0.039903134
237	0x3dee6240	0.116398335
238	0xbd3474b4	-0.04405661
239	0xbd765210	-0.060136855
240	0xbdcc0de2	-0.099635854
241	0xbd8d50be	-0.06900166
242	0xbd8bf77e	-0.06834315
243	0x3cf48f10	0.029853374
244	0x3d4c8e9c	0.04994069
245	0x3df451ee	0.11929689
246	0x3da80136	0.08203356
247	0x3af21700	0.0018469989
248	0x3d8a0f4c	0.06741199
249	0x3d92538a	0.0714484
250	0xbddcce70	-0.10781562
251	0x3d812d26	0.063074395
252	0xbdaf1f0a	-0.08550842
253	0x3dc5b000	0.0965271
254	0xbd5eb0e4	-0.054367915
255	0x3cd477b0	0.025935978

pts_linears.1.bias f4 [64]
0	0x3a30c800	0.00067436695
1	0xbca4efb8	-0.020133838
2	0x3dc74ebe	0.09731816
3	0x3bf53f00	0.007484317
4	0xbd99e23e	-0.075138554
5	0x3c656af0	0.014002547
6	0xbdbd59da	-0.092456535
7	0x3c98e130	0.018662065
8	0x3d0740ec	0.0330209
9	0xbdf15b7e	-0.11785029
10	0xbdaf1d80	-0.085505486
11	0xbd80949c	-0.06278345
12	0xbd330614	-0.04370697
13	0xbcba0ae8	-0.022710279
14	0x3d56b65c	0.052420005
15	0xbdca1016	-0.098663494
16	0x3d846734	0.06464997
17	0xbdb174fe	-0.086648926
18	0x3de0cd3c	0.10976645
19	0xbd921b90	-0.071341634
20	0xbdc3d766	-0.09562568
21	0x3db77982	0.08958723
22	0x3dd03a38	0.10167354
23	0xbd2d77c8	-0.04235056
24	0x3de07416	0.10959642
25	0x3c66a640	0.014077723
26	0x3d39f26c	0.045397207
27	0xbbf055a0	-0.007334426
28	0xbd0bde10	-0.034147322
29	0xbd393268	-0.045214087
30	0xbddb7dd2	-0.10717358
31	0x3dbad728	0.09123069
32	0x3d879f12	0.06622137
33	0x3de894da	0.11356516
34	0xbdfba966	-0.122881696
35	0x3dfceec8	0.123502314
36	0x3daabd22	0.083368555
37	0x3d0b9b5c	0.03408371
38	0xbd5bc1cc	-0.053651616
39	0x3db4a542	0.08820583
40	0x3da428fe	0.08015631
41	0x3ddc5272	0.10757913
42	0xbdd35d6a	-0.10320552
43	0x3c9ba4a8	0.018999413
44	0x3d385fdc	0.045013294
45	0xbdfbd476	-0.12296383
46	0x3defa046	0.117004916
47	0x3d9fcd58	0.07802838
48	0xbdcd94ba	-0.10038133
49	0xbddbc7d6	-0.10731475
50	0x3ba719a0	0.0050994903
51	0x3dcd54fc	0.10025975
52	0x3d14ad3c	0.03629802
53	0x3c8ffde0	0.017577112
54	0xbc04a9d0	-0.008097127
55	0xbdfe5c92	-0.1242
56	0x3d9a15b0	0.07523668
57	0x3da348be	0.07972859
58	0xbdb400c0	-0.087892056
59	0xbcbca2a0	-0.023026764
60	0x3df8e146	0.121523425
61	0xbd443db4	-0.047910407
62	0xbdafc3de	-0.085822806
63	0x3d92724a	0.07150705

pts_linears.2.weight f4 [64, 127]
0	0x3d27e572	0.0409903
1	0x3d9c8b45	0.07643751
2	0xbd1c8249	-0.038210187
3	0x3cb0bfa4	0.021575756
4	0x3caeff4c	0.02136197
5	0x3d93dd4b	0.07219943
6	0x3d4badb6	0.04972621
7	0x3caacf98	0.020850942
8	0xbc4c8bd8	-0.012484513
9	0xbc81aca0	-0.015829384
10	0xbd44254c	-0.04788713
11	0x3d18e13e	0.037324183
12	0x3d9ae039	0.07562298
13	0xbd38c285	-0.045107383
14	0xbd785f60	-0.06063783
15	0x3d8750b1	0.066071875
16	0x3c435760	0.011922687
17	0xbd2b54d8	-0.04182896
18	0x3d6b5dce	0.057462506
19	0xbd941201	-0.072299965
20	0xbd3294d4	-0.043598965
21	0xbce996d2	-0.0285143
22	0xbb392ea0	-0.002825655
23	0x3c9af5b8	0.018915996
24	0x3d2dd1ce	0.042436413
25	0xbcfdd30e	-0.030984428
26	0xbc0cf380	-0.008602977
27	0xbd3d8f98	-0.04627952
28	0xbd6efc44	-0.058346048
29	0x3c9e9af4	0.019360997
30	0x3d86016d	0.06543241
31	0x3d9cd323	0.07657459
32	0xbd8dd54e	-0.0692545
33	0x3d2bfe66	0.04199066
34	0xbce0455c	-0.027376823
35	0xbb90e760	-0.0044221133
36	0xbb72b4c0	-0.0037034005
37	0x3d9cf7e7	0.07664471
38	0x3d984745	0.074354686
39	0xbd93264a	-0.071850374
40	0x3c9da5d8	0.01924412
41	0x3d548e1a	0.05189333
42	0x3cc30784	0.023807295
43	0xbb06bc60	-0.0020559058
44	0xbd2b93fd	-0.04188918
45	0xbd8038dc	-0.06260845
46	0xbdb2df52	-0.08734001
47	0xbae167c0	-0.0017197058
48	0xbd0c3bfb	-0.03423689
49	0x3cab8e84	0.02094198
50	0xbd19a7fb	-0.037513714
51	0x3d96f31b	0.073705874
52	0xbd8038a3	-0.062608026
53	0x3da141d9	0.078738876
54	0xbd101c25	-0.03518309
55	0x3c60b620	0.013715297
56	0xbd054863	-0.032539736
57	0x3d19313e	0.037400477
58	0x3d8f6ac5	0.070027865
59	0x3da9ed1f	0.082971804
60	0xbd7bbb72	-0.06145806
61	0x3d7982fa	0.060915925
62	0x3d7065be	0.05869078
63	0xbd9520e4	-0.07281664
64	0x3d12e918	0.035866827
65	0x3c8c899c	0.017155461
66	0x3d477de6	0.04870405
67	0x3d9f3999	0.07774658
68	0x3b050800	0.0020298958
69	0xbd068a96	-0.03284701
70	0xbd23d0f2	-0.039994188
71	0x3c3bc0f0	0.011459574
72	0xbc5555c8	-0.01302094
73	0xbd822837	-0.063553266
74	0x3b223480	0.002475053
75	0x3d501de2	0.05080975
76	0x3b40cb80	0.002941817
77	0x3d647f52	0.055785485
78	0xbd094ec9	-0.0335224
79	0x3d8e85f7	0.069591455
80	0x3cad2f98	0.021140859
81	0xbcf44bee	-0.029821362
82	0x3d2f3eda	0.04278455
83	0x3d32bd6a	0.04363767
84	0xbd1bd6ba	-0.038046576
85	0xbc843954	-0.016140617
86	0x3d3b961e	0.04579746
87	0xbda027d6	-0.07820098
88	0x3d0a7ca2	0.033810265
89	0x3c9f5d54	0.019453682
90	0xbd77c117	-0.06048688
91	0xbc333ca0	-0.010939747
92	0x3cd4c334	0.025971986
93	0x3d7cd4aa	0.06172625
94	0x3d84e515	0.064890064
95	0xbd6a7600	-0.05724144
96	0xbd6c52c2	-0.05769611
97	0x3d2be0d6	0.041962467
98	0x3db34b67	0.08754616
99	0x3d9b3221	0.07577921
100	0x3d0f2210	0.034944594
101	0x3dac4fd7	0.08413666
102	0xbd26dcd5	-0.040737946
103	0xbb249ac0	-0.0025116652
104	0xbd943c99	-0.072381206
105	0xbd5f0d06	-0.05445578
106	0xbd75cd55	-0.060010273
107	0xbda4da37	-0.08049434
108	0x3ccd18a4	0.025036164
109	0x3cbbc3e8	0.022920564
110	0x3d125388	0.035724193
111	0x3d70e0b2	0.058808036
112	0xbd90c070	-0.070679545
113	0xbcd1cd34	-0.025610544
114	0x3d8f0015	0.069824375
115	0xbda0d44e	-0.07852994
116	0x3d7f746a	0.06236688
117	0x3cdfda48	0.027325764
118	0xbd9388f1	-0.07203854
119	0x3c9cd3cc	0.019143961
120	0x3b3ad720	0.0028509572
121	0x3c8c65e8	0.017138436
122	0xbcd09054	-0.025459446
123	0x3d24871e	0.04016792
124	0x3d8d55d3	0.06901135
125	0x3d7d5346	0.061846994
126	0xbc0b8948	-0.008516617
127	0xbda72c37	-0.0816273
128	0x3db1ea2d	0.086872436
129	0x3cca4bf0	0.024694413
130	0x3da14d29	0.07876045
131	0x3d02ed84	0.031964794
132	0x3abf3280	0.0014587194
133	0x3d4394aa	0.0477492
134	0x3d4b690e	0.049660735
135	0xbbbc28e0	-0.0057421774
136	0x3c5e94d8	0.013585292
137	0xbb6c1640	-0.0036024004
138	0x3d790a4e	0.060800843
139	0x3d2577da	0.040397502
140	0xbc726ac0	-0.014795959
141	0x3da95ab7	0.082692556
142	0x3dae245f	0.08503031
143	0x3d93a177	0.07208531
144	0x3c823fc4	0.015899546
145	0x3bb1d740	0.005427271
146	0xbd3dcbe4	-0.046337023
147	0x3d847b29	0.064688034
148	0xbd829325	-0.06375722
149	0xbd9ca2e4	-0.076482564
150	0x3cdb55fc	0.026774399
151	0xbda9ffba	-0.08300729
152	0x3ce7c0fc	0.028290264
153	0xbd2f0c5e	-0.042736404
154	0xba9233c0	-0.0011154339
155	0xbd0c078a	-0.034186877
156	0x3d92f3e3	0.07175424
157	0xbd871382	-0.06595518
158	0x3c8589d4	0.016301073
159	0x3aa4e1c0	0.0012579486
160	0xbdacec56	-0.08443515
161	0x3d8c85bd	0.06861446
162	0x3c8fc51c	0.017550044
163	0xbd91d21e	-0.07120155
164	0xbdb45d90	-0.08806908
165	0x3d20b816	0.039238058
166	0x3d952e77	0.07284253
167	0xbca5a6d0	-0.020221144
168	0xbcd6be44	-0.026213773
169	0xbd9af7a2	-0.075667635
170	0x3d7570ca	0.059922017
171	0xbd08ee05	-0.033430118
172	0xbd270f77	-0.040786233
173	0x3d0a4bda	0.033763744
174	0x3d9eef37	0.0776047
175	0x3d283896	0.04106959
176	0x3cd1a9d0	0.025593668
177	0x3da0d8b7	0.07853835
178	0x3b7755e0	0.0037740394
179	0x3c60e750	0.013727024
180	0xbbd474a0	-0.0064836293
181	0xbd63bed0	-0.055601895
182	0x3c858a3c	0.016301267
183	0xbd3cbf30	-0.046080768
184	0x3d5255ea	0.051351465
185	0xbd7ab4e6	-0.061207674
186	0xbd948b9d	-0.072531916
187	0xbc8c7314	-0.017144717
188	0x3d870067	0.065918736
189	0xbd8a137b	-0.06741997
190	0xbce7ab34	-0.028279878
191	0xbbdeca60	-0.0067990273
192	0xbd1ef365	-0.038806338
193	0x3d2bb4a6	0.041920327
194	0x3d9ebebd	0.07751224
195	0x3d44b92e	0.048028164
196	0xbc994d7c	-0.018713705
197	0xbd8eae66	-0.069668576
198	0xbd960bd5	-0.073264755
199	0xbcae117c	-0.021248572
200	0xbce4ffd4	-0.02795402
201	0xbd89d258	-0.06729573
202	0x3cb3c4f8	0.021944508
203	0xbd09b909	-0.03362373
204	0x3cd2ce08	0.025733009
205	0xbd4101ba	-0.047120787
206	0xbc02ffd0	-0.007995561
207	0xbcdac404	-0.026704796
208	0x3d5f4152	0.054505654
209	0xbda5db60	-0.08098483
210	0xbd0f5342	-0.03499151
211	0x3c9b3c2c	0.01894959
212	0xbccccc48	-0.024999753
213	0xbac70d00	-0.001518637
214	0x3d75a56e	0.05997222
215	0x3c501ef8	0.012702696
216	0x3c3338f0	0.010938868
217	0x3cd45e1c	0.025923781
218	0xbd438c20	-0.047741055
219	0xbd1127b2	-0.035438247
220	0x3d2e1aba	0.042505957
221	0x3c52c1a0	0.012863547
222	0x3d6d193a	0.057885386
223	0xbc399d70	-0.01132904
224	0x3daab805	0.0833588
225	0x3d590f02	0.05299283
226	0xbccba454	-0.024858631
227	0xbd39bf51	-0.04534847
228	0x3c92cb8c	0.017919324
229	0xbd979acf	-0.07402574
230	0xbd2673c7	-0.040637758
231	0x3cdeb14c	0.027184151
232	0x3bfd9c20	0.007739559
233	0x3d247c8e	0.040157847
234	0xbd180794	-0.037116602
235	0x3d98ef75	0.07467548
236	0xbd47de26	-0.04879584
237	0xbd3a3cd2	-0.04546816
238	0x3d732b7e	0.05936765
239	0xbc8c3f7c	-0.017120115
240	0x3ccff450	0.025385052
241	0xbc81226c	-0.015763484
242	0xbd808692	-0.06275667
243	0xbb68a040	-0.0035495907
244	0x3d24e4e2	0.040257342
245	0x3d74f342	0.0598023
246	0x3d8aa0df	0.06768965
247	0xbb4cc840	-0.0031247288
248	0x3d83a093	0.064271115
249	0x3ccd0de0	0.02503103
250	0x3b573540	0.0032838136
251	0x3adbba40	0.0016763881
252	0xbc0ab990	-0.008467093
253	0x3ccf9998	0.025341794
254	0xbb963830	-0.004584335
255	0x3d69bea6	0.057066582

pts_linears.2.bias f4 [64]
0	0x3d3e983a	0.046531893
1	0x3d4ea14a	0.050446786
2	0xbd9e59a8	-0.07731944
3	0xbd9d062d	-0.076671936
4	0x3d1d0186	0.03833153
5	0x3d51e5ee	0.05124467
6	0xbd9bdaa8	-0.07610065
7	0x3dae8399	0.08521194
8	0xbca03190	-0.019554883
9	0xbd93547d	-0.07193849
10	0xbd8553d6	-0.06510131
11	0xbca8a688	-0.02058722
12	0x3d3f476e	0.04669898
13	0xbd7aacbe	-0.061199896
14	0x3d85e593	0.065379284
15	0x3db59b9f	0.08867573
16	0x3daad5ed	0.08341584
17	0x3d25711a	0.040391065
18	0xbd1479b7	-0.03624889
19	0xbd0a2bce	-0.03373318
20	0x3d827c73	0.06371393
21	0xbc97d000	-0.0185318
22	0x3c5e7660	0.0135780275
23	0x3db5a56f	0.088694446
24	0xbdb4a656	-0.088207886
25	0xbca5fe98	-0.020263001
26	0xbd0fb10a	-0.035080947
27	0xbc6b55d0	-0.014363721
28	0x3b6f8a80	0.0036551058
29	0xbc9d7620	-0.019221365
30	0x3db069d1	0.08613933
31	0x3d136636	0.035986148
32	0xbd645c19	-0.055751894
33	0x3db017b1	0.08598269
34	0xbcc9c30c	-0.024629138
35	0x3c515970	0.012777671
36	0x3c07b6a0	0.008283287
37	0xbd859323	-0.06522205
38	0x3d38ea96	0.045145594
39	0xbd5cd0b3	-0.05390997
40	0xbda1e7de	-0.07905553
41	0x3d988ba7	0.074485116
42	0x3d59a292	0.053133555
43	0xbd182305	-0.037142772
44	0xbd8213ea	-0.063514546
45	0x3da41caf	0.080132835
46	0x3d008542	0.031377085
47	0xbd714292	-0.058901377
48	0xbd9700e4	-0.07373217
49	0xbd16602a	-0.036712803
50	0xbd49fd89	-0.049314056
51	0x3bce2070	0.006290488
52	0x3c0b2f08	0.0084951
53	0xbdb1d41e	-0.08683036
54	0x3d365d56	0.044522606
55	0x3d39291e	0.045205228
56	0xbda4ae58	-0.08041066
57	0x3d921d3f	0.071344845
58	0xbd10bb29	-0.03533474
59	0x3d3b140e	0.045673423
60	0x3db23e09	0.087032385
61	0x3d5749da	0.052560665
62	0x3d740bf2	0.059581704
63	0x3b4ca260	0.0031224713

pts_linears.3.weight f4 [64, 64]
0	0x3c95fe00	0.018309593
1	0xbdd9c44e	-0.10633145
2	0xbdb9ba3c	-0.090687245
3	0x3dce3430	0.10068548
4	0xbde9f62e	-0.11423908
5	0x3d5c80e8	0.053833872
6	0xbd96d60c	-0.07365045
7	0x3dddee9c	0.10836527
8	0x3dbce0aa	0.09222539
9	0xbce76830	-0.028247923
10	0xbc82f3d8	-0.015985414
11	0xbdb1969a	-0.08671303
12	0x3deec59c	0.11658785
13	0xbd9a4952	-0.07533516
14	0x3d36c250	0.044618905
15	0x3db3648c	0.08759412
16	0xbdf67f10	-0.12035954
17	0xbdfbca08	-0.12294394
18	0xbdb3ab48	-0.08772904
19	0xbc99b808	-0.01876451
20	0x3d9f25fa	0.07770915
21	0xbd1bd284	-0.03804256
22	0xbd537384	-0.051623836
23	0x3daa5a68	0.08318025
24	0x3dcd5074	0.10025111
25	0x3d86e7fa	0.06587215
26	0x3ddd3888	0.10801798
27	0xbde6d486	-0.112710044
28	0xbde44cfa	-0.111474946
29	0x3caa22a8	0.020768479
30	0xbdd6c9de	-0.10487722
31	0xbd0eec78	-0.034893483
32	0x3d9bd4a0	0.076089144
33	0x3df8bfe2	0.12145974
34	0xbccdcc78	-0.025121912
35	0xbde1c692	-0.110242024
36	0xbd7ca3a4	-0.061679497
37	0x3df8ca82	0.12148
38	0xbcbda3a0	-0.023149312
39	0xbdee1586	-0.11625199
40	0xbd878b96	-0.06618421
41	0xbd9face4	-0.07796648
42	0xbd05a4f0	-0.032628
43	0xbdb958fc	-0.090501755
44	0xbd2d4b70	-0.04230827
45	0x3deab248	0.11459786
46	0xbd727870	-0.05919689
47	0xbcdc03f0	-0.026857346
48	0x3d8fbb7c	0.07018182
49	0xbdef39bc	-0.11680934
50	0xbd86729a	-0.06564827
51	0xbc2e02a0	-0.010620743
52	0x3dc94ef6	0.09829514
53	0x3c8e6cd8	0.017385885
54	0xba220500	-0.00061805546
55	0xbd29e48c	-0.041477725
56	0x3d6d1c44	0.057888284
57	0xbd5c121c	-0.053728208
58	0xbca03868	-0.019558147
59	0xbd5ca974	-0.05387254
60	0x3d3f5e80	0.04672098
61	0x3dff577e	0.1246786
62	0xbdc126ce	-0.094312295
63	0xbc104d10	-0.008807436
64	0xbc112590	-0.008859053
65	0xbd802de0	-0.0625875
66	0xbdb680b2	-0.089112654
67	0xbd5a65e8	-0.05331984
68	0xbdc81190	-0.09768975
69	0x3dc2640e	0.0949174
70	0xbdb57702	-0.088605896
71	0x3d9c2ae8	0.07625371
72	0x3dd3b46e	0.103371486
73	0xbcbc2c18	-0.022970244
74	0x3dee313c	0.116304845
75	0x3db8fc74	0.090325266
76	0xbdb2838e	-0.08716498
77	0x3d922516	0.0713598
78	0x3d03a2bc	0.032137617
79	0x3dc96f3c	0.098356694
80	0xbdc22b2a	-0.09480889
81	0x3dc741a4	0.09729317
82	0x3c914df0	0.017737359
83	0x3d7a4924	0.06110491
84	0xbd8e1eb4	-0.0693945
85	0x3da89396	0.08231275
86	0xbc1346d0	-0.008989051
87	0x3dd31ac8	0.103078425
88	0x3c2ed2f0	0.010670409
89	0x3d9ee9d0	0.0775944
90	0xbda1c574	-0.07898989
91	0xbde2e11a	-0.11078091
92	0x3d31d2d4	0.043413952
93	0x3d879cf2	0.06621732
94	0x3d0db534	0.034596637
95	0x3d20db28	0.039271504
96	0x3da89f8c	0.08233556
97	0xbd83b7c8	-0.06431538
98	0x3d890592	0.066905156
99	0x3d757170	0.059922636
100	0xbd5952e0	-0.05305755
101	0xbd98493a	-0.07435842
102	0xbdfe3aa2	-0.12413527
103	0x3dbc4292	0.09192385
104	0xbafc9700	-0.0019271076
105	0x3cea25b8	0.028582439
106	0xbdb52f44	-0.08846906
107	0xbdc079e0	-0.09398246
108	0x3dd21510	0.102579236
109	0x3db45dd8	0.08806962
110	0x3d8a72c0	0.06760168
111	0x3dccb742	0.09995891
112	0x3dce2758	0.10066098
113	0x3d9737ae	0.07383667
114	0x3db8ea10	0.09029019
115	0xbc838bd0	-0.016057879
116	0x3d055a3c	0.032556757
117	0xbddc07dc	-0.107436866
118	0xbd378468	-0.044804007
119	0xbc3f57b0	-0.011678621
120	0xbbc7b1e0	-0.0060942024
121	0x3dfc7be4	0.12328318
122	0x3dd0e114	0.1019918
123	0x3d2139f0	0.039361894
124	0x3deeb596	0.116557285
125	0xbd828388	-0.06372744
126	0x3cc717c8	0.024303332
127	0xbdcb11ae	-0.099154815
128	0xbdd9c3e8	-0.10633069
129	0x3d88df16	0.06683175
130	0x3d2463f8	0.0401344
131	0xbbdc7580	-0.0067278743
132	0xbda5a46e	-0.08088003
133	0x3db88c26	0.09011106
134	0xbc1d1cf0	-0.009589419
135	0x3daec546	0.08533721
136	0xbdb0df4a	-0.08636339
137	0x3dc4bcae	0.096063
138	0xbbc17780	-0.005904138
139	0xbd1fff70	-0.039061964
140	0xbc291040	-0.010318816
141	0xbdc5720a	-0.09640892
142	0xbcbb3ba8	-0.022855595
143	0x3befff20	0.0073241144
144	0xbdbd893c	-0.09254691
145	0x3d8a3ef8	0.067502916
146	0x3df1d54e	0.11808263
147	0x3d83fc6a	0.064446285
148	0xbd7b81fc	-0.06140326
149	0xbd9f169e	-0.07767986
150	0xbdcae1b0	-0.09906328
151	0xbd9dd1a8	-0.077060044
152	0x3d98cecc	0.074613184
153	0x3d6bf9a4	0.057611123
154	0xbd3f7de0	-0.046750903
155	0x3b062f40	0.002047494
156	0xbca14c08	-0.019689575
157	0x3aecaa80	0.0018056184
158	0xbdfe93a4	-0.12430504
159	0x3dd85808	0.10563666
160	0xbd33b0d4	-0.04386981
161	0xbddc8600	-0.10767746
162	0xbb143540	-0.0022614747
163	0x3d190a54	0.037363365
164	0x3d6a7c94	0.057247713
165	0xbd814e1c	-0.06313726
166	0xbc158ee0	-0.009128302
167	0xbdbfc262	-0.093632475
168	0xbdc0fcc4	-0.09423211
169	0xbda9031c	-0.08252546
170	0xbda0ca7c	-0.07851121
171	0x3da0c2ac	0.07849631
172	0xbde6eaae	-0.1127523
173	0xbcd49430	-0.025949568
174	0xbd5446bc	-0.05182527
175	0x3da85d32	0.082209006
176	0xbc045740	-0.008077443
177	0xbd8ce18e	-0.06878959
178	0x3dcfe122	0.101503626
179	0xbdc21d7c	-0.0947828
180	0xbd41de1c	-0.04733096
181	0xbde9960a	-0.11405571
182	0xbc238aa0	-0.009981781
183	0x3d11be08	0.03558162
184	0x3ddfb26c	0.10922703
185	0xbdb99b50	-0.09062827
186	0xbdaadc4c	-0.083427995
187	0x3dffd472	0.124916926
188	0x3cb42f58	0.021995232
189	0xbdad7b84	-0.08470824
190	0x3d5cc568	0.0538992
191	0x3df69666	0.12040405
192	0x3b96bcc0	0.0046001375
193	0xbd6ac8a0	-0.057320237
194	0xbd88dd06	-0.06682782
195	0xbd382ba4	-0.044963494
196	0x3d82808e	0.06372176
197	0xbdb52bf0	-0.08846271
198	0x3de8dada	0.113698676
199	0xbd9e68b8	-0.07734817
200	0x3d0f9174	0.035050824
201	0x3dfeaae8	0.124349415
202	0xbd625ab8	-0.055262297
203	0xbdab2498	-0.08356589
204	0xbd84b562	-0.064799085
205	0xbd56b5a4	-0.05241932
206	0xbd9d342a	-0.07675965
207	0xbdfc40d8	-0.123170555
208	0xbd83913a	-0.06424184
209	0xbd31ff64	-0.04345645
210	0x3dddcacc	0.10829696
211	0xbcaec090	-0.021332055
212	0x3c6ea3d0	0.014565423
213	0xbd20ac0c	-0.039226577
214	0x3c9f9e28	0.019484594
215	0x3d73e910	0.059548438
216	0x3cb2ec68	0.021841243
217	0xbc7c10c0	-0.015384853
218	0x3c2c76c0	0.010526359
219	0x3df19152	0.11795296
220	0xbdaa829e	-0.083256945
221	0x3dfb2578	0.12263006
222	0xbce37010	-0.027763397
223	0x3db68a06	0.08913045
224	0x3dc6448e	0.096810445
225	0x3b8e7ae0	0.004348144
226	0x3b387280	0.002814442
227	0x3db17420	0.08664727
228	0xbc8e4478	-0.017366633
229	0x3d0ce550	0.034398377
230	0x3df4f070	0.11959922
231	0xbccab938	-0.024746522
232	0xbd345658	-0.044027656
233	0x3dc6865e	0.09693597
234	0x3de5ff56	0.11230342
235	0x3df57d58	0.11986798
236	0xbdf18a4c	-0.11793956
237	0x3da8939e	0.08231281
238	0x3d7c03d8	0.061527103
239	0xbda35a4e	-0.079762086
240	0x3da732e8	0.081640065
241	0xbd897cc0	-0.06713247
242	0x3d87683c	0.06611678
243	0x3c2f16f0	0.010686621
244	0x3d2168b8	0.03940651
245	0xbd9d62f6	-0.07684891
246	0xbcc5fca8	-0.024168327
247	0xbd8b2b72	-0.06795396
248	0x3d8b468c	0.06800565
249	0xbdcb5cbe	-0.099297985
250	0x3c0f66b0	0.00875251
251	0x3d45ccd0	0.048291028
252	0xbb3e9cc0	-0.002908513
253	0xbd1a0bc4	-0.037608877
254	0x3ce99550	0.02851358
255	0x3c21c730	0.00987415

pts_linears.3.bias f4 [64]
0	0x3d439f10	0.047759116
1	0xbddadc8e	-0.10686599
2	0x3d429a10	0.047510207
3	0xbda75930	-0.08171308
4	0xbdd15acc	-0.10222396
5	0x3c5441b0	0.012955114
6	0x3de19632	0.110149756
7	0x3c94ced0	0.018165022
8	0x3d3649cc	0.044503972
9	0xbc891680	-0.016734362
10	0x3bdbdd20	0.0067097098
11	0x3c5d5940	0.013510048
12	0xbd62c800	-0.055366516
13	0x3dcf73ea	0.10129531
14	0xbd9fbd4a	-0.07799776
15	0x3d8409de	0.064471945
16	0x3dac67f2	0.084182635
17	0xbd865b8e	-0.065604314
18	0x3ddcbe9c	0.10778543
19	0x3d4eaad8	0.050455898
20	0x3ddefaa0	0.10887647
21	0x3d4ca064	0.049957648
22	0xbd96805a	-0.073487
23	0x3d9cfb30	0.07665098
24	0x3dced898	0.10099906
25	0x3d9cef40	0.07662821
26	0x3d37e360	0.044894576
27	0x3cac2a38	0.021016225
28	0x3c0db440	0.008648932
29	0x3dfbd60a	0.12296684
30	0xbd798fa8	-0.060928017
31	0x3ce67798	0.028133199
32	0xbb4758c0	-0.003041789
33	0x3de6e59a	0.11274262
34	0x3d91f26a	0.07126315
35	0xbd9e6b54	-0.07735315
36	0x3d690428	0.05688873
37	0xbd266988	-0.040627986
38	0x3db2550a	0.08707626
39	0xbdd7c5ec	-0.105357975
40	0xbde71568	-0.1128338
41	0x3d640ff8	0.05567929
42	0xbd0e83d4	-0.03479369
43	0x3d041fd4	0.032256916
44	0x3dd3f382	0.1034918
45	0xbdb1bb98	-0.08678359
46	0xbc810cf0	-0.01575324
47	0xbd352c28	-0.044231564
48	0x3d8a8846	0.06764273
49	0xbd41e9c0	-0.047342062
50	0x3dd82036	0.10553019
51	0x3b881b60	0.004153654
52	0x3d140654	0.036138847
53	0xbd7d666c	-0.061865255
54	0xbba11f40	-0.0049170554
55	0xbde56de4	-0.112026006
56	0xbd656484	-0.056004062
57	0xbd1265d8	-0.035741657
58	0xbdd6b9d2	-0.10484661
59	0xbb048080	-0.0020218194
60	0x3d82a784	0.06379607
61	0xbd9775c6	-0.073955104
62	0xbc0a23b0	-0.00843136
63	0x3dbf5df2	0.093440905

density_linear.weight f4 [1, 64]
0	0xbd9ad97e	-0.075610146
1	0x3d15c4f0	0.036564767
2	0xbcd40d98	-0.025885388
3	0x3dd4ea50	0.10396254
4	0xbc306af0	-0.010767683
5	0x3dd44a64	0.103657514
6	0xbd280954	-0.04102452
7	0xbdc69d44	-0.09697965
8	0x3b687f80	0.0035476387
9	0xbd98abe8	-0.074546635
10	0xbd8ba14e	-0.06817876
11	0x3db3c3d6	0.08777587
12	0x3dec6f16	0.115446255
13	0xbda7f35e	-0.082007155
14	0xbdfeaff0	-0.12435901
15	0x3d1b17c0	0.037864447
16	0xbdd74258	-0.10510701
17	0xbd11e744	-0.035620943
18	0x3d5468c0	0.05185771
19	0x3d367cd0	0.044552624
20	0x3c96cdb8	0.018408641
21	0x3d61189c	0.05495511
22	0xbd8f212c	-0.06988749
23	0xbd2493a4	-0.040179864
24	0xbd27647c	-0.040867314
25	0xbdff3072	-0.12460412
26	0xbd92272a	-0.07136376
27	0x3c87a7a0	0.016559422
28	0x3d07b3f8	0.033130616
29	0xbd5e9f80	-0.05435133
30	0x3db1c82c	0.08680758
31	0xbd8c2968	-0.06843835
32	0x3be146a0	0.0068748742
33	0x3ddd1e68	0.10796815
34	0x3da96060	0.08270335
35	0x3df1c39a	0.11804886
36	0x3d0e6934	0.0347683
37	0xbdb0dd62	-0.086359754
38	0xbd2e8140	-0.04260373
39	0xbd12ea6c	-0.035868093
40	0xbdbd370e	-0.092390165
41	0xbd3fc914	-0.046822622
42	0xbdefdd34	-0.11712113
43	0xbd71869c	-0.058966264
44	0xbdff4d4e	-0.124659166
45	0x3dfa4180	0.122195244
46	0x3ca1acf8	0.019735798
47	0x3df3eaf0	0.11910045
48	0x3d921b9c	0.07134172
49	0x3dfb05e6	0.122569844
50	0xbd1865b0	-0.03720635
51	0xbd720dbc	-0.05909513
52	0xbd58d88c	-0.05294089
53	0xbdea798a	-0.11448963
54	0xbbf390e0	-0.007433042
55	0x3c969460	0.018381298
56	0x3d91d32e	0.071203575
57	0xbcc1b718	-0.023646876
58	0x3d25de04	0.040494934
59	0x3d594d48	0.053052217
60	0x3cd10370	0.025514334
61	0x3cf99358	0.030465767
62	0xbd428248	-0.047487527
63	0x3d8b4630	0.068004966

feature_linear.weight f4 [64, 64]
0	0x3c71c0d0	0.014755443
1	0x3d87690a	0.066118315
2	0x3da06496	0.07831685
3	0x3d61a94c	0.055093095
4	0xbc9b9550	-0.018992096
5	0x3db6753a	0.08909078
6	0xbdf2b5c6	-0.11851077
7	0xbcd642d8	-0.02615492
8	0xbd3f9b1c	-0.046778783
9	0x3d9c34ba	0.07627244
10	0x3de10250	0.10986769
11	0xbd07668c	-0.03305678
12	0x3cce11c0	0.025154948
13	0xbc940038	-0.01806651
14	0xbd11ad74	-0.03556581
15	0x3d4cccfc	0.050000176
16	0x3cf0ef80	0.029411077
17	0xbd76367c	-0.060110554
18	0x3cdf8078	0.027282938
19	0x3de73aae	0.11290489
20	0xbdb30766	-0.087416455
21	0xbca35538	-0.019938096
22	0xbde33f72	-0.110960856
23	0xbd013bcc	-0.031551167
24	0x3df2223c	0.11822936
25	0x3da68082	0.0812998
26	0xbdf17922	-0.117906824
27	0xbde53f7a	-0.11193748
28	0x3ba49800	0.0050230026
29	0xbc6a3ca0	-0.014296681
30	0x3dc0d7a6	0.09416132
31	0xbd0d2a18	-0.03446397
32	0x3dc2279a	0.0948021
33	0xbd9766b2	-0.073926345
34	0xbcba9340	-0.022775292
35	0xbb2f8140	-0.002677992
36	0xbd83c3d0	-0.06433833
37	0x3badd040	0.0053043664
38	0xbcdca5e0	-0.026934564
39	0xbd72ee6c	-0.059309408
40	0xbdc97916	-0.098375484
41	0xb9539c00	-0.00020180643
42	0x3dee3e4e	0.116329774
43	0x3d46bc94	0.048519686
44	0xbdc3ccb6	-0.0956053
45	0xbd81507a	-0.06314178
46	0x3da8260c	0.08210382
47	0xbd3ed88c	-0.046593234
48	0xbc3dc630	-0.011582896
49	0xbd70be24	-0.058775082
50	0x3d741e48	0.05959919
51	0xbdad2234	-0.08453789
52	0xbdf2a5bc	-0.118480176
53	0xbdbc1c32	-0.09185065
54	0xbddce6c0	-0.107861996
55	0x3c44ea00	0.012018681
56	0x3c9ec268	0.01937981
57	0xbd220f6c	-0.03956549
58	0x3d543624	0.051809445
59	0x3c401b80	0.0117253065
60	0x3cf770d8	0.030205175
61	0x3d85839a	0.06519242
62	0x3ccf1318	0.02527766
63	0x3dfe2a4a	0.1241041
64	0x3dbc5b1e	0.09197067
65	0xbd90d30a	-0.070715025
66	0x3dbf2728	0.0933364
67	0xbc5b3a50	-0.013380602
68	0xbbd82040	-0.0065956414
69	0x3c39a600	0.011331081
70	0xbddffff6	-0.109374925
71	0x3da72550	0.08161414
72	0x3da836fc	0.082136124
73	0x3df8321c	0.121189326
74	0x3cbab358	0.022790596
75	0xbd0bc1f8	-0.03412053
76	0xbc96a6b0	-0.01839003
77	0xbd27d748	-0.040976793
78	0xbde77f3c	-0.11303565
79	0x3d2e0834	0.04248829
80	0x3c98c608	0.018649116
81	0xbd1ded90	-0.038556635
82	0xbd9540fa	-0.07287784
83	0xbce4cb38	-0.027928934
84	0x3d0d91c8	0.034562856
85	0x3dc0a316	0.09406106
86	0x3d50cc04	0.050975814
87	0x3dc0fd20	0.0942328
88	0x3dce2e44	0.10067418
89	0xbd7bd004	-0.061477676
90	0xbb2a7dc0	-0.0026014894
91	0xbdd72922	-0.10505892
92	0xbd934656	-0.0719115
93	0x3d462ba0	0.048381448
94	0x3d3f4aa8	0.046702057
95	0x3d62d850	0.055382073
96	0x3ddb001c	0.1069338
97	0x3d4ff688	0.05077222
98	0xbd7ada44	-0.06124331
99	0xbcd3ac18	-0.025838897
100	0x3c16b540	0.009198487
101	0x3d827ea8	0.06371814
102	0xbd83b658	-0.06431264
103	0xbd561514	-0.052266195
104	0x3d43faac	0.04784648
105	0x3d2c7f7c	0.042113766
106	0x3df2bdec	0.11852631
107	0x3dd32008	0.10308844
108	0xbd6d9c68	-0.05801049
109	0x3d2ff320	0.04295647
110	0xbd9dd118	-0.07705897
111	0xbbad4de0	-0.0052888244
112	0xbc2d36c0	-0.010572135
113	0x3ce73238	0.028222188
114	0x3de05bd6	0.10955016
115	0xbdc8481a	-0.09779377
116	0x3deb99c2	0.11503936
117	0x3db29492	0.08719744
118	0xbd77c338	-0.06048891
119	0xbd0a3d60	-0.033749938
120	0xbce0a840	-0.027423978
121	0x3da0862e	0.07838093
122	0xbd037064	-0.032089606
123	0x3d34025c	0.043947563
124	0xbd4ad024	-0.049514905
125	0x3dceb1be	0.100924954
126	0xbca47048	-0.020073071
127	0x3df4bdc0	0.119502544
128	0xbdbe93b6	-0.093055174
129	0xbd18df54	-0.037322357
130	0x3da57570	0.0807904
131	0x3d2a47dc	0.041572437
132	0xbd81a01c	-0.063293666
133	0xbdd1a08c	-0.102357
134	0xbdc14620	-0.094372034
135	0xbdd5e8be	-0.10444783
136	0xbd8d796c	-0.06907925
137	0xbd9b1d44	-0.07573941
138	0xbd13c4bc	-0.036076292
139	0x3dddd02c	0.10830721
140	0xbd07e614	-0.033178404
141	0xbd9e3b56	-0.07726161
142	0x3d7a50a8	0.061112076
143	0xbd96ac5e	-0.07357095
144	0xbd801fb2	-0.062560454
145	0xbca93690	-0.0206559
146	0xbc7c1580	-0.015385985
147	0xbd9ddea4	-0.07708481
148	0xbdcb9834	-0.0994114
149	0xbdf9e3da	-0.12201662
150	0xbd5928d0	-0.053017437
151	0x3d81b4d8	0.06333321
152	0x3c244c00	0.010027885
153	0x3dcc11e6	0.09964351
154	0x3cb19a18	0.021679923
155	0xbdc00dd2	-0.09377636
156	0x3c40ee30	0.011775538
157	0xbd032f74	-0.032027677
158	0x3d90f458	0.07077855
159	0x3d0b4e04	0.03400995
160	0x3dfd6c36	0.12374155
161	0xbde586ce	-0.112073526
162	0xbd73afa8	-0.05949369
163	0xbdd94a64	-0.10609892
164	0x3c363a30	0.011122271
165	0xbda32f4c	-0.079680055
166	0xbd5499ec	-0.051904604
167	0x3df45f44	0.11932233
168	0xbd2b8a68	-0.04188004
169	0x3d7be894	0.0615011
170	0x3da49744	0.08036664
171	0x3db9a9c6	0.09065585
172	0x3dd16992	0.10225214
173	0x3d9deaba	0.07710786
174	0x3c4af340	0.012387097
175	0x3dd7ffd0	0.10546839
176	0x3df7bdfa	0.12096782
177	0xbdb097b6	-0.086226866
178	0x3cd5d6e0	0.026103437
179	0x3db023e6	0.08600597
180	0xbdad128c	-0.08450803
181	0x3d48f0a8	0.049057633
182	0x3d9fd6cc	0.07804641
183	0x3b7f9c40	0.0039003044
184	0xbd1403f4	-0.036136582
185	0xbc295fc0	-0.01033777
186	0x3ddeb086	0.10873513
187	0xbdcab23a	-0.09897275
188	0x3d4b21e8	0.049592882
189	0xbd8a92a8	-0.06766254
190	0x3dacc29e	0.08435558
191	0xbd526da0	-0.051374078
192	0x3ce25e68	0.027632907
193	0x3da1c614	0.078991085
194	0xbc850b20	-0.016240656
195	0xbca3daf8	-0.020001873
196	0x3de719aa	0.11284192
197	0x3df3ef1a	0.119108394
198	0x3d881aee	0.066457614
199	0x3b33e5c0	0.0027450174
200	0xba852300	-0.0010157526
201	0xbd9facb4	-0.077966124
202	0x3dadec32	0.08492316
203	0x3d638ea8	0.05555597
204	0x3dcc2646	0.099682376
205	0xbda720b4	-0.081605345
206	0x3cfdf5e0	0.031001031
207	0x3cc83c78	0.024442896
208	0xbd18761c	-0.037222013
209	0xbc55b1b0	-0.013042852
210	0x3ccd21d0	0.025040537
211	0xbd0b5e84	-0.034025684
212	0x3df28a0a	0.11842735
213	0xbde5bd3e	-0.11217736
214	0xbc931648	-0.01795496
215	0xbd71ade4	-0.059003726
216	0x3dc28eba	0.09499879
217	0xbd386398	-0.045016855
218	0xbceb61d0	-0.028733164
219	0x3ddc3734	0.10752717
220	0xbddfac50	-0.10921538
221	0xbd2b0624	-0.041753903
222	0x3ddbf35a	0.10739775
223	0x3db3df50	0.08782828
224	0xbd11d0c8	-0.0355995
225	0xbcc0af40	-0.023521066
226	0xbd7402ac	-0.05957286
227	0x3ccaa488	0.024736658
228	0x3d16182c	0.036644146
229	0x3dacf0ac	0.08444342
230	0x3d60bec8	0.054869443
231	0x3d8120d8	0.063050926
232	0xbca312d0	-0.019906431
233	0xbdb6f550	-0.089335084
234	0x3d8d5a12	0.06901945
235	0xbb0e48c0	-0.0021710843
236	0xbda7836e	-0.08179365
237	0x3c373e10	0.01118423
238	0x3dfd4bda	0.12367983
239	0xbc2cab40	-0.010538876
240	0xbdd5d996	-0.10441892
241	0x3d9a9b38	0.07549137
242	0x3dbe5cca	0.09295042
243	0xbda398b0	-0.07988107
244	0xbddfe828	-0.10932952
245	0xbdb72af0	-0.089437366
246	0x3d5282f8	0.051394433
247	0xbd5220d0	-0.051300824
248	0xbdfb78b8	-0.12278885
249	0xbc12f730	-0.008970067
250	0xbd821138	-0.063509405
251	0xbd178ee0	-0.03700149
252	0xbd4a12e4	-0.04933442
253	0xbd2bcd68	-0.041943938
254	0xbda6aeb2	-0.08138789
255	0xbccfee58	-0.025382206

feature_linear.bias f4 [64]
0	0x3d12fcdc	0.035885677
1	0x3d1088c0	0.035286665
2	0xbdec6b4a	-0.11543901
3	0xbc1cb800	-0.009565353
4	0x3de15e80	0.110043526
5	0x3c2c21b0	0.010506079
6	0x3df232c6	0.118260905
7	0xbcf56b68	-0.029958442
8	0x3c739af0	0.014868483
9	0x3d88ae8e	0.06673919
10	0x3b5b1000	0.0033426285
11	0x3d9099b2	0.07060565
12	0x3de5d464	0.11222151
13	0x3da5ab54	0.08089319
14	0x3d55ccc0	0.052197218
15	0x3db0cf30	0.08633268
16	0x3dcf5892	0.10124315
17	0xbde8846a	-0.11353381
18	0x3db87b50	0.09007895
19	0x3dab958c	0.08378133
20	0x3d81297e	0.06306742
21	0xbd9ea688	-0.07746607
22	0x3dc4a016	0.096008465
23	0x3d06e3b8	0.032932013
24	0x3d471d9c	0.048612222
25	0xbdfe8360	-0.124274015
26	0x3de71388	0.11283022
27	0xbdcf8d04	-0.101343185
28	0x3d5a2c34	0.05326481
29	0x3df9de42	0.122005954
30	0x3d8f005e	0.06982492
31	0xbcd3b620	-0.02584368
32	0xbcacb980	-0.021084547
33	0xbda253bc	-0.07926127
34	0xbd890714	-0.06690803
35	0xbd673700	-0.056448936
36	0x3d92b274	0.071629435
37	0x3d9fc5e2	0.07801415
38	0xbcff0078	-0.031128153
39	0x3d2ad08c	0.041702792
40	0x3caeee70	0.02135393
41	0xbd118414	-0.03552635
42	0x3dadb724	0.08482197
43	0xbdb26a1c	-0.08711645
44	0x3ccd9148	0.02509369
45	0x3cf17220	0.029473364
46	0xbb9bcdc0	-0.004754752
47	0x3cc1a350	0.023637444
48	0x3da5104c	0.08059749
49	0x3d3d6910	0.046242774
50	0xbc86ba68	-0.016446307
51	0x3d25602c	0.04037492
52	0x3d5eb548	0.054372102
53	0xbd455148	-0.04817322
54	0xbdb6026a	-0.08887179
55	0x3d8c6446	0.06855063
56	0xbc3bb830	-0.011457488
57	0x3daf807c	0.08569428
58	0x3cbb9a58	0.022900745
59	0x3c58c510	0.013230577
60	0x3d568fc0	0.052383184
61	0x3dc6ae64	0.09701231
62	0xbd276044	-0.04086329
63	0x3d6794a8	0.056538254
